app/src/main/assets/weather.tflite (tflite, 141376 bytes, 6 tensors)

sequential/dense_1/BiasAdd/ReadVariableOp f4 [128]
0.03447578 -0.009845122 0.05172749 0.0 -0.012030991 -0.01657304 -0.010891052 -0.008685408
-0.018194621 0.062408183 0.029054651 -0.01032874 0.11447727 0.0 -0.015394496 0.026044525
-0.019858113 0.017889768 0.0 -0.0133306505 0.031936318 0.0 0.019574108 0.0334019
-0.014787674 -0.0065505113 0.03772561 -0.012420677 -0.0043517053 0.007823251 0.04053893 0.0
-0.009846899 0.01918744 -0.016364723 0.013351305 -0.009703365 -0.012178822 0.024852822 -0.012403395
0.038095903 0.048195112 -0.009507663 0.010752181 0.013349984 -0.007878414 -0.033870947 -0.01136533
0.038741283 -0.011020364 -0.014242387 0.07473774 0.019918837 0.03760528 0.035416827 -0.005998241
-0.022058435 -0.022289986 -0.012535069 0.033141244 0.010360848 -0.0060051125 0.010912989 -0.008130986
0.01740588 -0.015904978 0.035961006 0.030935112 0.003952227 -0.013531604 0.016912015 -0.019628622
0.019470956 0.03419321 -0.009728017 -0.0071719973 -0.020870652 -0.007121594 0.033919986 0.026300715
0.034155272 -0.01502371 0.04605099 -0.007485927 0.037487205 -0.0032551452 -0.0053429743 0.04033791
-0.01893723 0.0116037335 0.019390265 -0.0055563543 0.01780272 0.0 0.13845578 0.10530962
0.03477559 0.025709854 0.046166986 -0.011225083 0.06459758 -0.0021274404 0.05015012 0.028441545
0.034578905 0.0 0.0 -0.013769436 0.0 -0.026639843 -0.012935043 0.028725753
0.026953507 -0.0016510912 -0.014680078 0.023533635 -0.0138284955 0.055520393 -0.019473927 0.005714055
0.04702426 -0.013332703 -0.013632735 -0.0059996694 0.04079222 0.022768538 -0.024188282 0.025394924
00000000: 7a36 0d3d 6f4d 21bc 34e0 533d 0000 0000
00000010: a21d 45bc 2fc4 87bc 6270 32bc 3e4d 0ebc
00000020: e30c 95bc b99f 7f3d 0504 ee3c e039 29bc
00000030: 0f73 ea3d 0000 0000 3239 7cbc 545b d53c
00000040: 7bad a2bc 908d 923c 0000 0000 cd68 5abc
00000050: a8cf 023d 0000 0000 e159 a03c 6ed0 083d
00000060: 0048 72bc aca5 d6bb 2b86 1a3d 1880 4bbc
00000070: c098 8ebb 182d 003c 260c 263d 0000 0000
00000080: e354 21bc fa2e 9d3c 500f 86bc 6fbf 5a3c
00000090: ddfa 1ebc af89 47bc 2598 cb3c 9c37 4bbc
000000a0: 730a 1c3d 3d68 453d 07c6 1bbc ea29 303c
000000b0: e4b9 5a3c 7714 01bc 43bc 0abd a635 3abc
000000c0: 2eaf 1e3d c28e 34bc e758 69bc 1a10 993d
000000d0: d42c a33c fe07 1a3d 3c11 113d e48c c4bb
000000e0: e4b3 b4bc 7d99 b6bc e45f 4dbc 1dbf 073d
000000f0: 8cc0 293c 89c6 c4bb 65cc 323c d437 05bc
00000100: c796 8e3c 284b 82bc d94b 133d a26b fd3c
00000110: af81 813b a9b3 5dbc 118b 8a3c 34cc a0bc
00000120: 8e81 9f3c 2e0e 0c3d 4362 1fbc 1303 ebbb
00000130: eef8 aabc 435c e9bb afef 0a3d 9974 d73c
00000140: 66e6 0b3d 0226 76bc f69f 3c3d 824c f5bb
00000150: 2f8c 193d 4654 55bb 1e14 afbb 5d39 253d
00000160: 4022 9bbc 961d 3e3c 55d8 9e3c 1412 b6bb
00000170: 03d7 913c 0000 0000 5ac7 0d3e 92ac d73d
00000180: d970 0e3d 799d d23c 9819 3d3d 69e9 37bc
00000190: bc4b 843d 876c 0bbb 366a 4d3d 3efe e83c
000001a0: 9ca2 0d3d 0000 0000 0000 0000 3399 61bc
000001b0: 0000 0000 cd3b dabc 81ed 53bc 4552 eb3c
000001c0: 9acd dc3c 6d69 d8ba b684 70bc 9cc9 c03c
000001d0: ea90 62bc 5a69 633d c987 9fbc f83c bb3b
000001e0: 839c 403d 6971 5abc d65b 5fbc e098 c4bb
000001f0: be15 273d 1685 ba3c 8126 c6bc 0409 d03c

sequential/dense_2/BiasAdd/ReadVariableOp f4 [5]
-0.018593974 0.00011041046 0.014778838 0.018229708 0.00028098482
00000000: 6452 98bc 2a8c e738 f022 723c 7856 953c
00000010: 2551 9339

sequential/dense/BiasAdd/ReadVariableOp f4 [256]
0.03628725 0.026757132 0.0 0.04217424 0.101491995 0.045112707 0.03382908 0.016407482
0.02496465 0.0 -0.011371944 0.0 0.0 0.035704628 0.016393242 0.036982544
0.0 0.035119172 0.02588713 0.030542515 0.024617746 0.022277938 0.0 0.11459759
0.02046066 0.0 -0.011826366 0.11477066 0.0106599415 0.009476882 -0.048612483 0.02782116
0.08550692 0.023873808 0.022935731 0.0 0.025154518 0.016662307 -0.020209895 0.00041718403
-0.0016483982 -0.00872145 0.0 0.025960138 0.0 0.018583786 -0.008280584 0.0
-0.012228359 -0.0021510103 0.020123806 -0.014386556 0.0044280416 0.0 -0.02813238 0.018414633
-0.022787372 -0.0012254568 0.02750259 0.054114122 -0.021806184 0.0 0.0034527234 0.0
-0.005121139 0.00042909896 0.009688565 0.043315455 -0.0059188055 -0.0055449093 0.023574209 -0.009511717
0.017046168 -0.013346509 -0.014640975 0.013957659 0.01652397 0.0 0.0 -0.004248816
0.013210855 0.0 0.037764758 0.007504307 0.025240025 0.028694775 0.0 0.004929457
0.020547321 0.0 0.01648853 -0.020271862 0.050886773 -0.009406355 -0.0034475278 -0.012918456
0.0 0.014939386 0.023638502 -0.005532025 0.0 -0.009771102 -0.008141716 0.10549311
0.13085826 -0.016958259 -0.012982202 0.009175736 0.012009439 0.0 0.01628518 -0.0035212163
0.040778834 0.015040904 -0.011786981 -0.020724585 -0.007480766 0.1001333 0.011177151 0.0
0.0 -0.055740915 0.025195431 0.011253905 0.016859185 0.02608915 0.022400836 -0.00519109
0.14178556 0.011900131 0.022652633 0.04580611 0.0 -0.009820321 0.010156741 0.06574259
-0.020228608 -0.0040037245 0.009047181 0.018465653 0.030048337 0.053130638 0.046335094 0.014911539
-0.005082895 0.0033917916 0.014268222 -0.0075325062 0.12869416 0.0073385728 -0.007921034 -0.0077006933
-0.0065320744 0.020915305 0.0065059066 -0.0040619005 0.0 0.0 0.0 0.0047376794
0.044645127 0.03534742 0.0045741396 0.020005606 0.023500279 0.0059129987 0.030359441 0.0
0.002510451 -0.015663141 0.0111550065 0.0 0.03190863 0.012944613 0.029624073 0.034348726
-0.0060067014 0.026729805 -0.045980334 0.025701022 0.09019441 -0.047446422 0.0 0.02457384
0.023935672 0.0 0.048660245 0.0010980307 0.0 0.0051342817 0.0 -0.023267088
0.11767841 -0.036425095 0.015078645 0.022420736 0.010634222 0.009362247 0.0 0.044800326
-0.031078959 0.028654829 0.0021820806 0.020676296 -0.005550864 0.01356949 0.0045837164 -0.0042497227
-0.0020487427 0.018763075 0.002624362 -0.012106925 0.0 -0.0028736666 -0.016638272 0.017443564
0.03662199 0.054597948 0.0 0.02105529 -0.00554099 -0.012573885 0.005655901 0.017983818
0.012708519 -0.008358471 0.032115296 0.008258911 0.061834004 0.031879228 -0.030282395 0.02189715
0.024244443 -0.050314315 -0.012367436 -0.014993826 0.0 -0.006319644 0.022784816 0.10826515
0.0022846325 0.10787682 -0.0229096 0.019416373 0.025599437 0.005706693 0.024565397 0.0
0.053326815 0.010454073 -0.0074655935 -0.062624335 0.0 0.011120062 0.0 -0.006747583
00000000: f1a1 143d c631 db3c 0000 0000 e5be 2c3d
00000010: 09db cf3d 1ac8 383d 5d90 0a3d fc68 863c
00000020: aa82 cc3c 0000 0000 6451 3abc 0000 0000
00000030: 0000 0000 043f 123d 1f4b 863c 027b 173d
00000040: 0000 0000 1fd9 0f3d 3f11 d43c 4c34 fa3c
00000050: 28ab c93c 3980 b63c 0000 0000 24b2 ea3d
00000060: 1d9d a73c 0000 0000 60c3 41bc e10c eb3d
00000070: 09a7 2e3c ed44 1b3c e21d 47bd 34e9 e33c
00000080: 411e af3d 0193 c33c b7e3 bb3c 0000 0000
00000090: d910 ce3c 647f 883c 398f a5bc 7eb9 da39
000000a0: 110f d8ba 6ae4 0ebc 0000 0000 5baa d43c
000000b0: 0000 0000 063d 983c 49ab 07bc 0000 0000
000000c0: 7459 48bc f7f7 0cbb aeda a43c 97b5 6bbc
000000d0: 1b19 913b 0000 0000 e175 e6bc 49da 963c
000000e0: 95ac babc 829f a0ba 1d4d e13c c5a6 5d3d
000000f0: e2a2 b2bc 0000 0000 1647 623b 0000 0000
00000100: 3acf a7bb b0f8 e039 c9bc 1e3c 8c6b 313d
00000110: 8af2 c1bb 12b2 b5bb b31e c13c 08d7 1bbc
00000120: 68a4 8b3c 51ab 5abc b3e0 6fbc aaae 643c
00000130: 475d 873c 0000 0000 0000 0000 a739 8bbb
00000140: 5872 583c 0000 0000 38af 1a3d b1e6 f53b
00000150: 2bc4 ce3c 4e11 eb3c 0000 0000 4887 a13b
00000160: db52 a83c 0000 0000 f412 873c 2d11 a6bc
00000170: a66e 503d 1d1d 1abc ebef 61bb efa7 53bc
00000180: 0000 0000 54c4 743c 88a5 c13c fd45 b5bb
00000190: 0000 0000 f916 20bc d564 05bc c60c d83d
000001a0: b5ff 053e 0cec 8abc 4db3 54bc d455 163c
000001b0: 3dc3 443c 0000 0000 7f68 853c 35c4 66bb
000001c0: b507 273d 206e 763c 2e1e 41bc 9bc6 a9bc
000001d0: 3721 f5bb b012 cd3d 5f20 373c 0000 0000
000001e0: 0000 0000 9650 64bd a666 ce3c 4c62 383c
000001f0: 461c 8a3c eab8 d53c f581 b73c 051a aabb
00000200: 3c30 113e c4f8 423c 0492 b93c 309f 3b3d
00000210: 0000 0000 69e5 20bc 7668 263c 0da4 863d
00000220: 77b6 a5bc ad31 83bb a13a 143c 4845 973c
00000230: ee27 f63c 839f 593d dec9 3d3d 874f 743c
00000240: 6a8e a6bb d248 5e3b 43c5 693c 3ed3 f6bb
00000250: 67c8 033e 6978 f03b 39c7 01bc 1956 fcbb
00000260: 030b d6bb 9356 ab3c 802f d53b b119 85bb
00000270: 0000 0000 0000 0000 0000 0000 893e 9b3b
00000280: cfdd 363d 75c8 103d aae2 953b cce2 a33c
00000290: a883 c03c d4c1 c13b 5db4 f83c 0000 0000
000002a0: 6186 243b fd4f 80bc 7dc3 363c 0000 0000
000002b0: a0b2 023d a415 543c 2fae f23c 40b1 0c3d
000002c0: ddd3 c4bb 77f8 da3c e055 3cbd f38a d23c
000002d0: d9b7 b83d 2e57 42bd 0000 0000 144f c93c
000002e0: be14 c43c 0000 0000 f74f 473d cceb 8f3a
000002f0: 0000 0000 7a3d a83b 0000 0000 9f9a bebc
00000300: 6101 f13d 7b32 15bd 6c0c 773c b1ab b73c
00000310: 293b 2e3c 1c64 193c 0000 0000 8c80 373d
00000320: 4d99 febc 88bd ea3c 3d01 0f3b 5661 a93c
00000330: 06e4 b5bb 9152 5e3c 0033 963b 4241 8bbb
00000340: 3344 06bb 05b5 993c 7dfd 2b3b 205c 46bc
00000350: 0000 0000 2054 3cbb fc4c 88bc cee5 8e3c
00000360: f100 163d 19a2 5f3d 0000 0000 257c ac3c
00000370: 3191 b5bb b202 4ebc 2355 b93b cd52 933c
00000380: 6437 503c f8f1 08bc 548b 033d 6250 073c
00000390: a745 7d3d cb93 023d c912 f8bc a761 b33c
000003a0: 489c c63c 6216 4ebd c9a0 4abc aaa8 75bc
000003b0: 0000 0000 0415 cfbb 39a7 ba3c 1eba dd3d
000003c0: c6b9 153b 86ee dc3d eaac bbbc 160f 9f3c
000003d0: e9b5 d13c 36ff ba3b 5f3d c93c 0000 0000
000003e0: 386d 5a3d 8f47 2b3c f0a1 f4bb 3041 80bd
000003f0: 0000 0000 ec30 363c 0000 0000 d41a ddbb

sequential/dense/MatMul f4 [256, 4]
-1.3025652 0.12527247 -0.11355968 0.037956323 0.5926085 -0.13527352 0.018629147 0.16212401
0.03329034 -0.062226586 -0.08296193 -0.03982483 0.8193454 -0.049024925 0.1331584 -0.12896
-0.02856588 0.10978408 -0.20622462 -0.17631207 -1.4637158 -0.08167535 0.037487816 0.06063511
0.569824 -0.07561074 -0.03704392 0.17561764 0.76192105 -0.13124608 0.14107771 0.008325625
1.1548357 -0.032154858 0.0011398025 0.050569918 0.03038226 -0.06127397 -0.04121478 -0.1378865
-0.13806559 0.072057806 -0.07140207 -0.11476048 0.1155214 -0.01996687 -0.13773198 -0.09898324
-0.09614952 -0.13750674 0.014608607 -0.07192999 -1.4456927 -0.018433316 -0.0217203 0.108121976
0.6815126 -0.06727498 0.013343562 0.073255785 0.8749317 -0.008614551 0.1376822 -0.12496364
-0.12290193 -0.09237031 0.0067543983 -0.097703464 0.85514706 0.007153528 -0.07800965 0.10049559
0.74327374 -0.08044686 0.1426446 -0.077049285 0.964258 -0.023528319 -0.051632784 0.11217155
-1.4315791 0.077478066 -0.069484174 0.04590027 0.5755632 -0.1333808 0.03255708 0.13862792
0.10917184 -0.003274247 -0.14603142 -0.13882259 0.30507204 -0.21888553 -0.33775395 0.10954971
-1.0468975 0.11420819 -0.027916702 -0.0024611293 -0.037379436 0.044147775 -0.046963178 -0.09915289
-0.030109072 0.02100905 0.10763917 0.13532093 0.0071444176 -0.14083514 -0.178017 0.0017614721
-0.5426917 0.04138814 0.106959194 0.1649244 -0.90712774 0.09615643 0.07843031 0.13488373
-0.043452695 0.08996011 0.13408491 0.043208215 0.71417344 0.08219549 0.084006086 -0.14495192
-0.8893589 -0.12401246 -0.12569374 0.10952493 1.1017028 0.114238866 -0.03647424 -0.048449304
-0.3735249 0.06918066 0.0320147 0.10985856 -0.06014613 -0.09177919 0.029355139 -0.10583348
0.48158664 0.035502885 0.15545762 -0.11882754 0.20116135 0.15837164 0.1464963 0.10771234
0.44223902 0.05242821 0.12926286 0.02179298 -0.30158016 0.1465221 0.113117754 0.04210701
-0.2373633 0.13935655 0.06866154 0.044446528 -0.052260406 0.051077783 -0.04824007 -0.14241357
-0.073035486 -0.014521718 -0.09986241 -0.14316547 -0.6532567 0.0066531305 0.048875537 0.18875833
-0.12918782 -0.0067436844 -0.12882647 -0.06113188 0.32775384 -0.07645652 0.13597889 0.09910532
0.09986609 -0.049494833 0.024447761 0.1680277 0.077089116 -0.14490946 -0.09341112 -0.029527254
0.03156109 -0.049530536 0.030178323 -0.04514826 -0.22733676 0.15925974 0.10271386 0.0015262911
-0.87267923 0.15071705 -0.013130416 -0.0642498 -1.1033105 0.14001198 0.005223795 0.00045168784
-0.26111984 0.10229567 0.06157416 0.09489307 0.11484185 -0.13344502 -0.12167815 -0.0881487
-0.4224138 0.1236902 0.01565017 0.094555825 0.4401151 0.05444788 0.124087 0.048901707
0.3757578 0.029093912 0.08765977 -0.01891316 -0.75333863 0.10968485 0.059061047 -0.109102145
-0.55900574 0.029608069 0.11237168 0.005509847 1.2263603 0.08576523 -0.051852267 -0.06328161
-0.16713406 0.044146407 0.11673093 0.11781572 -0.09120176 -0.0622904 -0.04063742 0.0038750768
0.20769331 -0.007991358 0.17215456 -0.07037909 -0.0027667582 0.021256566 -0.14902459 -0.048462763
00000000: 75ba a6bf 6d47 003e fa91 e8bd 1778 1b3d
00000010: 31b5 173f 2485 0abe 279c 983c d603 263e
00000020: 745b 083d 4ee1 7ebd f2e7 a9bd 5c1f 23bd
00000030: 9fc0 513f 5cce 48bd ad5a 083e 170e 04be
00000040: fe02 eabc 7ad6 e03d 8c2c 53be 278b 34be
00000050: 0a5b bbbf 6845 a7bd d38c 193d 855c 783d
00000060: fcdf 113f ced9 9abd 5ebb 17bd 1cd5 333e
00000070: 420d 433f 5f65 06be ad76 103e 3468 083c
00000080: a8d1 933f d0b4 03bd 6d65 953a 6722 4f3d
00000090: 38e4 f83c 6afa 7abd d4d0 28bd 1e32 0dbe
000000a0: 1161 0dbe 0b93 933d 403b 92bd 8b07 ebbd
000000b0: 7c96 ec3d 9091 a3bc 9d09 0dbe bab7 cabd
000000c0: 0aea c4bd 91ce 0cbe f058 6f3c 0850 93bd
000000d0: 750c b9bf 7701 97bc c5ee b1bc 0e6f dd3d
000000e0: 9c77 2e3f 77c7 89bd f59e 5a3c 2107 963d
000000f0: 86fb 5f3f 0c24 0dbc 90fc 0c3e f0ec ffbd
00000100: 02b4 fbbd a52c bdbd 0054 dd3b c118 c8bd
00000110: ebea 5a3f 2468 ea3b 86c3 9fbd a2d0 cd3d
00000120: 3047 3e3f 53c1 a4bd 6d11 123e 04cc 9dbd
00000130: 9dd9 763f 76be c0bc e67c 53bd 33ba e53d
00000140: fc3d b7bf d2ac 9e3d b84d 8ebd ec01 3c3d
00000150: 1c58 133f fa94 08be 935a 053d 7af4 0d3e
00000160: 7c95 df3d c094 56bb 4389 15be 8227 0ebe
00000170: 6732 9c3e 8723 60be 16ee acbe 995b e03d
00000180: bd00 86bf fce5 e93d 91b1 e4bc e64a 21bb
00000190: 2e1b 19bd 4cd4 343d 765c 40bd ac10 cbbd
000001a0: 4da7 f6bc 2c1b ac3c ed71 dc3d 9291 0a3e
000001b0: b81b ea3b 1637 10be 174a 36be 32e1 e63a
000001c0: d8ed 0abf 9c86 293d 6c0d db3d f1e1 283e
000001d0: 8639 68bf aaed c43d 12a0 a03d f61e 0a3e
000001e0: 74fb 31bd 023d b83d 8e4d 093e 19fb 303d
000001f0: 12d4 363f 1c56 a83d 620b ac3d 476e 14be
00000200: 06ad 63bf 3ffa fdbd dcb5 00be 9b4e e03d
00000210: 9904 8d3f 11f6 e93d 0366 15bd c772 46bd
00000220: a83e bfbe 97ae 8d3d d921 033d 86fd e03d
00000230: ca5b 76bd baf6 bbbd 307a f03c 39bf d8bd
00000240: 8692 f63e 796b 113d 4830 1f3e da5b f3bd
00000250: 3efd 4d3e 2d2c 223e 2003 163e 4a98 dc3d
00000260: 276d e23e f6be 563d 7c5d 043e 3187 b23c
00000270: b768 9abe e409 163e 48aa e73d 6678 2c3d
00000280: 5d0f 73be 7cb3 0e3e 6c9e 8c3d 900d 363d
00000290: 020f 56bd f036 513d 6197 45bd ddd4 11be
000002a0: a193 95bd 80ec 6dbc aa84 ccbd f899 12be
000002b0: d53b 27bf 8102 da3b b731 483d dd49 413e
000002c0: d049 04be 20fa dcbb 16eb 03be 6c65 7abd
000002d0: 5acf a73e 3c95 9cbd 0d3e 0b3e bbf7 ca3d
000002e0: 9886 cc3d 18bb 4abd ac46 c83c 740f 2c3e
000002f0: e6e0 9d3d 2563 14be 544e bfbd 24e3 f1bc
00000300: 3446 013d 88e0 4abd 8838 f73c 62ed 38bd
00000310: f8ca 68be fc14 233e a55b d23d d50d c83a
00000320: e867 5fbf 9255 1a3e f520 57bc 6695 83bd
00000330: 4739 8dbf 4d5f 0f3e 5e2c ab3b 84d0 ec39
00000340: 80b1 85be 6480 d13d 3035 7c3d 4c57 c23d
00000350: 3432 eb3d d0a5 08be 6532 f9bd 4e87 b4bd
00000360: 9f46 d8be 4a51 fd3d c934 803c 7ca6 c13d
00000370: c456 e13e bd04 5f3d 5321 fe3d 284d 483d
00000380: 5463 c03e 5b56 ee3c f786 b33d c5ef 9abc
00000390: cdda 40bf 73a2 e03d ffe9 713d f270 dfbd
000003a0: 001b 0fbf 9f8c f23c 2023 e63d f28b b43b
000003b0: 60f9 9c3f aea5 af3d 0b63 54bd ca99 81bd
000003c0: 3125 2bbe ddd2 343d a010 ef3d 5e49 f13d
000003d0: fdc7 babd 3824 7fbd 6c73 26bd 00f5 7d3b
000003e0: 8ead 543e 2fee 02bc 4949 303e ea22 90bd
000003f0: 8052 35bb 4022 ae3c e799 18be e480 46bd

sequential/dense_1/MatMul f4 [128, 256]
0.05729051 0.014359814 0.06280616 -0.1621981 0.28656426 0.33927897 0.04782838 -0.14708047
-0.06721688 0.048457056 -0.095817514 0.062096238 -0.040789753 0.25461373 0.1512272 -0.13492489
0.11343956 0.055066407 0.058642134 -0.0970986 0.23698641 0.1456909 0.023043275 0.043748625
0.1855341 0.02078101 0.082005955 -0.07467016 0.023849463 0.15798917 -0.019090796 -0.1154629
0.032494877 -0.1729281 0.11908422 0.092062 -0.08601712 0.08467266 -0.083909996 0.06865832
-0.06702515 -0.080510594 -0.03586614 0.08347629 -0.11087152 0.113573804 0.08241441 0.11404276
0.08101591 -0.013329656 0.14588471 -0.0068961326 0.06321194 0.045224518 0.026693853 0.107635714
0.053966213 0.057059694 0.018733783 -0.12065197 -0.0581761 -0.10221553 0.12983452 0.056559086
0.08139918 0.09746692 0.092399895 -0.054718155 0.028567307 0.074279726 0.09444041 0.15360795
-0.02634589 0.1459604 0.030158525 -0.08844696 -0.03635925 -0.043848455 -0.11951062 -0.10144752
0.0045117415 0.10649362 0.015255012 -0.025455631 0.020320589 0.0058699194 -0.06361824 -0.061532833
-0.039116833 0.02275446 0.030809069 -0.1048114 0.029689606 0.046782207 -0.10729585 -0.09413833
-0.029212356 0.11044668 -6.8569294e-05 0.11675967 0.03643775 0.051611092 -0.0050047264 -0.14678273
-0.2281705 0.061264858 -0.032556288 0.056133784 -0.09435773 -0.02417627 0.0469653 0.022664355
0.054741252 0.0143215405 0.06003761 0.080826655 0.10126208 -0.17491123 -0.22333944 0.029679477
0.06361374 0.019987077 0.03452573 0.010313628 -0.0022408443 -0.022193562 0.25162393 -0.015235549
-0.341877 0.08297833 -0.12808582 0.11546689 -0.093869746 0.17791793 -0.08026126 0.27748954
0.14300673 0.17759871 0.0915576 -0.07325423 0.16311342 0.08979817 -0.088761464 -0.12715058
-0.06205909 -0.1106103 0.09595723 0.16937353 -0.253269 0.11897206 0.05121465 -0.046878792
0.081560634 -0.06876703 0.13361074 -0.028360793 0.110134065 -0.087157935 -0.01894489 0.09934816
0.30456284 0.06530999 -0.023566563 -0.10170845 0.12501071 0.013377985 0.08873596 -0.091869265
0.0436906 0.084849365 0.0965375 -0.09341183 -0.08348378 0.02131438 0.07265912 -0.023713766
0.043763548 0.14351471 0.12206838 -0.0061498447 -0.27383304 0.08386303 -0.0171296 -0.13791929
-0.05390736 -0.08091518 0.124205075 0.032230027 -0.11182827 0.04190663 0.018275589 0.031003576
-0.23214819 -0.057560217 -0.0487801 0.0075303204 -0.094302945 0.03894387 0.080209106 0.23571283
0.10839517 0.2539874 0.098617546 0.014686696 -0.118661225 -0.013553169 0.0931049 0.012439641
0.14018475 -0.041288838 0.11036136 -0.007882776 0.035667866 -0.044674534 0.028808702 -0.021026015
-0.076181315 -0.0756136 -0.11379588 0.061212372 -0.04204553 0.047561575 0.021715745 -0.070496894
0.14731236 -0.0003298927 0.10051749 -0.014775922 0.21631655 0.22726163 -0.0065498627 0.11702287
0.035764623 -0.12184809 0.07983972 -0.0776717 -0.09491515 -0.057124116 0.06963592 0.11533626
-0.018960675 -0.111338176 -0.014115665 -0.05988872 0.10597503 -0.07567196 0.02650714 0.013787121
0.25300866 -0.06494593 -0.015359206 0.0056165224 -0.060664028 -0.03645416 -0.07232943 0.12652545
00000000: 74a9 6a3d 6d45 6b3c 84a0 803d 4217 26be
00000010: 8db8 923e f9b5 ad3e b1e7 433d 439c 16be
00000020: 01a9 89bd e87a 463d f93b c4bd a058 7e3d
00000030: 2813 27bd bb5c 823e 4edb 1a3e c029 0abe
00000040: 0053 e83d 508d 613d bc32 703d a1db c6bd
00000050: 91ac 723e ff2f 153e 40c5 bc3c c231 333d
00000060: a7fc 3d3e f03c aa3c bdf2 a73d abec 98bd
00000070: f35f c33c eac7 213e 4d64 9cbc d077 ecbd
00000080: 5919 053d 1014 31be 6de2 f33d 008b bc3d
00000090: be29 b0bd dc68 ad3d 01d9 abbd bc9c 8c3d
000000a0: 7b44 89bd bde2 a4bd 60e8 12bd 9ef5 aa3d
000000b0: 9c10 e3bd 6299 e83d e3c8 a83d 408f e93d
000000c0: abeb a53d a164 5abc cd62 153e f4f8 e1bb
000000d0: 4375 813d 583d 393d 11ad da3c 1d70 dc3d
000000e0: ad0b 5d3d 6db7 693d 9777 993c 6118 f7bd
000000f0: 104a 6ebd 6056 d1bd 57f3 043e 80aa 673d
00000100: 9db4 a63d bd9c c73d 283c bd3d 2520 60bd
00000110: fc05 ea3c f81f 983d f969 c13d 674b 1d3e
00000120: 56d3 d7bc a576 153e 030f f73c ae23 b5bd
00000130: 70ed 14bd 709a 33bd fcc1 f4bd b8c3 cfbd
00000140: 3bd7 933b 5419 da3d 28f0 793c 5488 d0bc
00000150: 5d77 a63c 7458 c03b 484a 82bd da09 7cbd
00000160: f938 20bd 9067 ba3c 4d63 fc3c 5ca7 d6bd
00000170: 9e37 f33c b39e 3f3d edbd dbbd 99cb c0bd
00000180: c04e efbc de31 e23d dccc 8fb8 b21f ef3d
00000190: c03f 153d 2766 533d b0fe a3bb 364e 16be
000001a0: 87a5 69be dcf0 7a3d be59 05bd 8aec 653d
000001b0: a03e c1bd 500d c6bc b05e 403d 99aa b93c
000001c0: 5d38 603d e5a4 6a3c ffe9 753d 7288 a53d
000001d0: 7e62 cf3d ee1b 33be 18b3 64be 6022 f33c
000001e0: ec47 823d f0bb a33c da6a 0d3d 7efa 283c
000001f0: 21db 12bb 46cf b5bc dad4 803e 869e 79bc
00000200: 810a afbe 8bf0 a93d ee28 03be e879 ec3d
00000210: c83e c0bd 1e30 363e 0460 a4bd 1c13 8e3e
00000220: 5b70 123e 70dc 353e 8d82 bb3d 5006 96bd
00000230: 3407 273e 1ae8 b73d 92c8 b5bd c333 02be
00000240: ac31 7ebd a787 e2bd 3985 c43d 4170 2d3e
00000250: 79ac 81be a0a7 f33d 74c6 513d fa03 40bd
00000260: 4309 a73d bbd5 8cbd 41d1 083e e554 e8bc
00000270: f88d e13d dc7f b2bd 5032 9bbc 0c77 cb3d
00000280: a9ef 9b3e 3ec1 853d aa0e c1bc 854c d0bd
00000290: cf02 003e 562f 5b3c 33bb b53d f425 bcbd
000002a0: eaf4 323d 81c5 ad3d 74b5 c53d b44e bfbd
000002b0: 8bf9 aabd 7f9b ae3c 4ece 943d 5f43 c2bc
000002c0: 6841 333d 85f5 123e fdfe f93d a384 c9bb
000002d0: d833 8cbe 61c0 ab3d 6053 8cbc b73a 0dbe
000002e0: f7cd 5cbd dcb6 a5bd 3b5f fe3d a203 043d
000002f0: 3806 e5bd 49a6 2b3d b0b6 953c 36fb fd3c
00000300: 41b8 6dbe 43c4 6bbd a4cd 47bd e8c0 f63b
00000310: e721 c1bd 9c83 1f3d ac44 a43d b45e 713e
00000320: 49fe dd3d a30a 823e fff7 c93d 78a0 703c
00000330: a804 f3bd 1c0e 5ebc c8ad be3d a3cf 4b3c
00000340: 978c 0f3e 7c1e 29bd 2305 e23d c226 01bc
00000350: 7818 123d a5fc 36bd 3a00 ec3c c03e acbc
00000360: f304 9cbd 4edb 9abd d00d e9bd d3b9 7a3d
00000370: ef37 2cbd edcf 423d 38e5 b13c ad60 90bd
00000380: 0dd9 163e 73f5 acb9 1ddc cd3d b516 72bc
00000390: 1682 5d3e 46b7 683e 3ba0 d6bb b0a9 ef3d
000003a0: ed7d 123d 7e8b f9bd 0283 a33d 5712 9fbd
000003b0: e062 c2bd fafa 69bd 479d 8e3d 6b35 ec3d
000003c0: 6b53 9bbc 4505 e4bd 6445 67bc e04d 75bd
000003d0: 7009 d93d e7f9 9abd 8025 d93c 60e3 613c
000003e0: 5a8a 813e 5f02 85bd 2ea5 7bbc ce0a b83b
000003f0: d87a 78bd f550 15bd 7421 94bd e38f 013e

sequential/dense_2/MatMul f4 [5, 128]
-0.16898333 0.12912986 0.04712004 -0.11962582 -0.13769558 0.0672603 0.0775986 0.0981817
0.04821844 0.19044879 -0.43863633 0.13507985 -0.30585492 -0.10677209 0.032950778 0.00952342
0.1903835 0.11199024 -0.07956603 -0.084364474 -0.047378 -0.01637952 -0.07201287 -0.28685105
0.05486028 0.16773163 -0.10246075 0.0468514 -0.12430303 -0.019619724 -0.3601274 -0.016172498
-0.10669847 0.09114648 0.006180729 -0.12791812 0.18119891 0.118159235 0.15253642 -0.10734584
0.2525729 -0.005921934 -0.111869924 0.30331093 -0.3500656 0.044365 -0.19954234 0.15704893
-0.23322992 0.16567117 -0.062646106 0.24826202 -0.12979929 -0.16366333 0.2622247 -0.08083934
-0.1553033 -0.123923935 0.17093036 -0.13981257 -0.15222415 0.03547832 0.04770784 -0.02074549
0.09154078 -0.0043259333 -0.09655101 -0.14254996 -0.11337866 -0.07527584 -0.3189422 -0.22705348
-0.2681637 0.29077852 0.08134575 0.11550623 -0.17379263 0.032331273 -0.38519683 -0.060628887
0.13145213 0.16559196 -0.082394004 0.16523428 -0.42270094 0.30522382 -0.1574988 -0.27256182
-0.007180116 -0.12760581 0.0366962 0.1266485 -0.20919514 0.08543572 0.19662 0.4092385
-0.20925297 -0.45297343 -0.062458165 -0.09286165 -0.23911493 -0.08936818 0.071043275 -0.028632129
-0.13150185 -0.029379964 0.06469455 0.17234878 0.12555727 0.14309424 -0.029396957 -0.3218144
-0.021040035 -0.07163438 0.02357075 0.21206218 0.13373119 -0.21020664 0.033312384 0.18120113
0.009932687 -0.04397619 0.06264577 -0.13677153 -0.40853828 -0.055008378 -0.13602173 -0.27352944
0.17002101 -0.039903443 0.063602924 0.09846005 0.048827406 -0.099621065 0.12552135 0.07475721
0.14769709 0.07920848 -0.21882887 -0.13565552 -0.23087354 -0.056715086 0.098201334 -0.060642425
0.044212714 -0.032342274 0.19318464 0.10398887 -0.0915482 0.101371646 0.21147436 -0.40233687
0.19002281 0.17263328 0.19717452 -0.036409438 -0.07672928 0.035481274 -0.31971025 -0.14218868
0.037802283 -0.13570611 -0.21670626 -0.24489115 -0.118761785 -0.022642398 -0.06763163 -0.032373667
0.1427673 0.16179171 0.18699059 0.04561638 -0.14040524 0.037510697 -0.047406327 0.093873635
-0.008535782 -0.039514285 0.08074787 0.13706401 -0.1263866 -0.16131815 -0.0340208 -0.013085464
-0.13344291 0.04740287 -0.021480167 -0.2280237 -0.14040866 0.109028615 -0.12102526 0.1592025
0.13753642 -0.15940201 0.105758175 -0.38552883 -0.2847644 -0.18530074 -0.08324865 0.07812885
-0.27309933 0.24049397 0.14197537 0.18475379 0.09646517 -0.107022844 -0.52043384 0.014581465
-0.13371256 0.07750227 0.15201902 0.0661279 0.025103666 0.27001595 0.19175223 -0.21154982
0.17504536 -0.09022606 0.078784354 -0.13415362 0.017456684 0.18716183 -0.41149023 -0.22188066
0.17653689 -0.39525166 0.17696843 -0.041448336 -0.16209832 -0.20381008 0.11707344 -0.019322017
0.12356684 0.08496153 -0.0067896545 0.19952232 -0.19700393 -0.22916444 0.15331666 -0.29578364
-0.041880276 -0.095413186 0.107740894 -0.016986322 0.037172243 -0.1812383 -0.20330477 -0.13160531
0.07418325 0.07311823 0.08373446 -0.14621377 -0.1301857 -0.023728019 -0.11578853 0.13216935
00000000: f709 2dbe 9e3a 043e f100 413d 62fe f4bd
00000010: 1200 0dbe c5bf 893d 04ec 9e3d 7d13 c93d
00000020: b380 453d 0205 433e f194 e0be 5f52 0a3e
00000030: 0499 9cbe 53ab dabd 65f7 063d 1e08 1c3c
00000040: e4f3 423e 245b e53d 84f3 a2bd 48c7 acbd
00000050: 6f0f 42bd 582e 86bc 7c7b 93bd 24de 92be
00000060: 2cb5 603d d7c1 2b3e f1d6 d1bd 41e7 3f3d
00000070: 9692 febd 8bb9 a0bc 9e62 b8be 307c 84bc
00000080: ba84 dabd 01ab ba3d b687 ca3b f8fc 02be
00000090: 358c 393e 78fd f13d 8232 1c3e 23d8 dbbd
000000a0: 3c51 813e c80c c2bb 0f1c e5bd 924b 9b3e
000000b0: cc3b b3be 13b8 353d d454 4cbe 6fd1 203e
000000c0: d3d3 6ebe b4a5 293e 9a4c 80bd 6638 7e3e
000000d0: 1bea 04be 5c97 27be 5142 863e 198f a5bd
000000e0: d407 1fbe d5cb fdbd 5e08 2f3e 072b 0fbe
000000f0: a6e0 1bbe b751 113d 4c69 433d 72f2 a9bc
00000100: bc79 bb3d 8fc0 8dbb 89bc c5bd 9ef8 11be
00000110: 1233 e8bd 382a 9abd 644c a3be b580 68be
00000120: c14c 89be ece0 943e 9a98 a63d 888e ec3d
00000130: b2f6 31be cc6d 043d 8538 c5be ff55 78bd
00000140: 639b 063e f090 293e 30be a8bd 2d33 293e
00000150: 426c d8be 4c46 9c3e 5e47 21be 398d 8bbe
00000160: 2e47 ebbb 19ab 02be c14e 163d 25b0 013e
00000170: 4037 56be ecf8 ae3d c156 493e b587 d13e
00000180: 6946 56be 22ec e7be 22d4 7fbd 402e bebd
00000190: 8bda 74be aa06 b7bd 237f 913d ed8d eabc
000001a0: 6ca8 06be 40ae f0bc 947e 843d 337c 303e
000001b0: 1692 003e 4c87 123e e3d1 f0bc dbc4 a4be
000001c0: 275c acbc 0cb5 92bd 7217 c13c d426 593e
000001d0: d4f0 083e 6940 57be 9172 083d ca8c 393e
000001e0: b5bc 223c 6120 34bd 6d4c 803d d60d 0cbe
000001f0: ee2b d1be 7750 61bd 4849 0bbe 0d0c 8cbe
00000200: fd19 2e3e cb71 23bd 4042 823d 6ca5 c93d
00000210: 3fff 473d 2106 ccbd ab88 003e 4f1a 993d
00000220: e83d 173e 0e38 a23d ad14 60be 48e9 0abe
00000230: 1d6a 6cbe 144e 68bd c81d c93d 3164 78bd
00000240: 6418 353d 5579 04bd 32d2 453e 1ef8 d43d
00000250: 9f7d bbbd f09b cf3d bc8c 583e 19ff cdbe
00000260: 5795 423e c7c6 303e 1ee8 493e 1022 15bd
00000270: 3e24 9dbd d054 113d 10b1 a3be e999 11be
00000280: 91d6 1a3d 8bf6 0abe 3fe8 5dbe bfc4 7abe
00000290: 6139 f3bd 8d7c b9bc 7482 8abd 409a 04bd
000002a0: 9731 123e baac 253e 767a 3f3e 3ed8 3a3d
000002b0: 64c6 0fbe d1a4 193d 232d 42bd d240 c03d
000002c0: aad9 0bbc bbd9 21bd 245f a53d 825a 0c3e
000002d0: 7d6b 01be 9630 25be 6559 0bbd 6a64 56bc
000002e0: 42a5 08be 8329 423d 2df7 afbc 0b7f 69be
000002f0: 4ac7 0fbe 654a df3d 17dc f7bd fb05 233e
00000300: 59d6 0c3e 483a 23be be97 d83d 0964 c5be
00000310: a4cc 91be 7abf 3dbe 457e aabd 0502 a03d
00000320: add3 8bbe 0d44 763e fe61 113e 1930 3d3e
00000330: 888f c53d cb2e dbbd 273b 05bf 19e7 6e3c
00000340: f2eb 08be 83b9 9e3d e0aa 1b3e 106e 873d
00000350: 34a6 cd3c 883f 8a3e b25a 443e 84a0 58be
00000360: 173f 333e 71c8 b8bd b159 a13d 915f 09be
00000370: 5201 8f3c 5aa7 3f3e d9ae d2be af34 63be
00000380: 16c6 343e 6d5e cabe 3637 353e bbc5 29bd
00000390: 1afd 25be 97b3 50be 33c4 ef3d 3549 9ebc
000003a0: 9d10 fd3d 5000 ae3d c07b debb 944f 4c3e
000003b0: 66bb 49be 15aa 6abe 0bff 1c3e f470 97be
000003c0: a78a 2bbd fd67 c3bd 42a7 dc3d e626 8bbc
000003d0: ec41 183d 8896 39be 202f 50be 8bc3 06be
000003e0: 63ed 973d 03bf 953d f97c ab3d 10b9 15be
000003f0: 664f 05be 4361 c2bc 8922 edbd 6757 073e
